…
Average actions of users: 1.1244732850160122
The number of items: 13738
Average actions of items: 2.9137429028970736
The number of inters: 40029
The sparsity of the dataset: 99.99181486908563%
Mon 12 Jan 2026 10:13:47 INFO 

=================================


Mon 12 Jan 2026 10:13:47 INFO =========1/16: Parameters:['knn_k', 'learning_rate', 'reg_weight', 'gamma', 'tau', 'degree_n', 'num_of_session_k', 'psh_weight', 'fai_dropout', 'fai_rank', 'user_view_weight', 'user_aug_user_k', 'seed']=(10, 0.0001, 0.1, 0.2, 0.8, 3, 10, 0.0001, 0.3, 32, 0.0001, 10, 999)=======
Mon 12 Jan 2026 10:13:55 INFO CPPRec(
  (MLP_v): Linear(in_features=64, out_features=64, bias=False)
  (MLP_t): Linear(in_features=64, out_features=64, bias=False)
  (image_embedding): Embedding(18357, 4096)
  (p_embedding): Embedding(18357, 100)
  (z_embedding): Embedding(18357, 384)
  (psh_gate_v): AttributeGate(
    (mlp): Sequential(
      (0): Linear(in_features=64, out_features=64, bias=True)
      (1): ReLU()
      (2): Linear(in_features=64, out_features=64, bias=True)
    )
  )
  (psh_gate_p): AttributeGate(
    (mlp): Sequential(
      (0): Linear(in_features=64, out_features=64, bias=True)
      (1): ReLU()
      (2): Linear(in_features=64, out_features=64, bias=True)
    )
  )
  (psh_gate_z): AttributeGate(
    (mlp): Sequential(
      (0): Linear(in_features=64, out_features=64, bias=True)
      (1): ReLU()
      (2): Linear(in_features=64, out_features=64, bias=True)
    )
  )
  (v_gcn): GCN(
    (fai): FactorizedAttributeInteraction(
      (u): Linear(in_features=4096, out_features=32, bias=False)
      (v): Linear(in_features=4096, out_features=32, bias=False)
      (proj): Linear(in_features=32, out_features=64, bias=False)
      (dropout): Dropout(p=0.3, inplace=False)
    )
    (conv_embed_1): Base_gcn(64, 64)
    (ID_embedding): Embedding(18357, 64)
  )
  (p_gcn): GCN(
    (fai): FactorizedAttributeInteraction(
      (u): Linear(in_features=100, out_features=32, bias=False)
      (v): Linear(in_features=100, out_features=32, bias=False)
      (proj): Linear(in_features=32, out_features=64, bias=False)
      (dropout): Dropout(p=0.3, inplace=False)
    )
    (conv_embed_1): Base_gcn(64, 64)
    (ID_embedding): Embedding(18357, 64)
  )
  (z_gcn): GCN(
    (fai): FactorizedAttributeInteraction(
      (u): Linear(in_features=384, out_features=32, bias=False)
      (v): Linear(in_features=384, out_features=32, bias=False)
      (proj): Linear(in_features=32, out_features=64, bias=False)
      (dropout): Dropout(p=0.3, inplace=False)
    )
    (conv_embed_1): Base_gcn(64, 64)
    (ID_embedding): Embedding(18357, 64)
  )
)
Trainable parameters: 94873639
Mon 12 Jan 2026 10:14:02 INFO epoch 0 training [time: 6.72s, train loss: 98.0371]
Mon 12 Jan 2026 10:14:06 INFO epoch 0 evaluating [time: 1.95s, valid_score: 0.033500]
Mon 12 Jan 2026 10:14:06 INFO valid result: 
recall@10: 0.0219    recall@20: 0.0335    ndcg@10: 0.0123    ndcg@20: 0.0153    
Mon 12 Jan 2026 10:14:06 INFO test result: 
recall@10: 0.0236    recall@20: 0.0350    ndcg@10: 0.0135    ndcg@20: 0.0165    
…
