…
Average actions of users: 1.0457511361616778
The number of items: 16803
Average actions of items: 2.451288460393977
The number of inters: 41189
The sparsity of the dataset: 99.99377640221293%
Mon 12 Jan 2026 19:15:22 INFO 

=================================


Mon 12 Jan 2026 19:15:22 INFO =========1/9: Parameters:['knn_k', 'learning_rate', 'reg_weight', 'gamma', 'tau', 'degree_n', 'num_of_session_k', 'psh_weight', 'fai_dropout', 'fai_rank', 'user_view_weight', 'user_aug_user_k', 'seed']=(10, 0.0001, 0.01, 0.2, 0.7, 3, 10, 0.01, 0.01, 16, 0.001, 10, 999)=======
Mon 12 Jan 2026 19:15:24 INFO CPPRec(
  (MLP_v): Linear(in_features=64, out_features=64, bias=False)
  (MLP_t): Linear(in_features=64, out_features=64, bias=False)
  (image_embedding): Embedding(23033, 4096)
  (p_embedding): Embedding(23033, 100)
  (z_embedding): Embedding(23033, 384)
  (psh_gate_v): AttributeGate(
    (mlp): Sequential(
      (0): Linear(in_features=64, out_features=64, bias=True)
      (1): ReLU()
      (2): Linear(in_features=64, out_features=64, bias=True)
    )
  )
  (psh_gate_p): AttributeGate(
    (mlp): Sequential(
      (0): Linear(in_features=64, out_features=64, bias=True)
      (1): ReLU()
      (2): Linear(in_features=64, out_features=64, bias=True)
    )
  )
  (psh_gate_z): AttributeGate(
    (mlp): Sequential(
      (0): Linear(in_features=64, out_features=64, bias=True)
      (1): ReLU()
      (2): Linear(in_features=64, out_features=64, bias=True)
    )
  )
  (v_gcn): GCN(
    (fai): FactorizedAttributeInteraction(
      (u): Linear(in_features=4096, out_features=16, bias=False)
      (v): Linear(in_features=4096, out_features=16, bias=False)
      (proj): Linear(in_features=16, out_features=64, bias=False)
      (dropout): Dropout(p=0.01, inplace=False)
    )
    (conv_embed_1): Base_gcn(64, 64)
    (ID_embedding): Embedding(23033, 64)
  )
  (p_gcn): GCN(
    (fai): FactorizedAttributeInteraction(
      (u): Linear(in_features=100, out_features=16, bias=False)
      (v): Linear(in_features=100, out_features=16, bias=False)
      (proj): Linear(in_features=16, out_features=64, bias=False)
      (dropout): Dropout(p=0.01, inplace=False)
    )
    (conv_embed_1): Base_gcn(64, 64)
    (ID_embedding): Embedding(23033, 64)
  )
  (z_gcn): GCN(
    (fai): FactorizedAttributeInteraction(
      (u): Linear(in_features=384, out_features=16, bias=False)
      (v): Linear(in_features=384, out_features=16, bias=False)
      (proj): Linear(in_features=16, out_features=64, bias=False)
      (dropout): Dropout(p=0.01, inplace=False)
    )
    (conv_embed_1): Base_gcn(64, 64)
    (ID_embedding): Embedding(23033, 64)
  )
)
Trainable parameters: 117776734
Mon 12 Jan 2026 19:15:28 INFO epoch 0 training [time: 4.23s, train loss: 84.5806]
Mon 12 Jan 2026 19:15:33 INFO epoch 0 evaluating [time: 2.19s, valid_score: 0.018000]
Mon 12 Jan 2026 19:15:33 INFO valid result: 
recall@10: 0.0129    recall@20: 0.0180    ndcg@10: 0.0075    ndcg@20: 0.0088    
Mon 12 Jan 2026 19:15:33 INFO test result: 
recall@10: 0.0125    recall@20: 0.0173    ndcg@10: 0.0072    ndcg@20: 0.0085    
…
Parameters: ['knn_k', 'learning_rate', 'reg_weight', 'gamma', 'tau', 'degree_n', 'num_of_session_k', 'psh_weight', 'fai_dropout', 'fai_rank', 'user_view_weight', 'user_aug_user_k', 'seed']=(10, 0.0001, 0.01, 0.2, 0.7, 3, 10, 0.01, 0.01, 16, 0.001, 10, 999),
Valid: recall@10: 0.0707    recall@20: 0.1044    ndcg@10: 0.0395    ndcg@20: 0.0480    ,
Test: recall@10: 0.0727    recall@20: 0.1055    ndcg@10: 0.0399    ndcg@20: 0.0483



Mon 12 Jan 2026 19:31:20 INFO =========2/9: Parameters:['knn_k', 'learning_rate', 'reg_weight', 'gamma', 'tau', 'degree_n', 'num_of_session_k', 'psh_weight', 'fai_dropout', 'fai_rank', 'user_view_weight', 'user_aug_user_k', 'seed']=(10, 0.0001, 0.01, 0.2, 0.7, 3, 10, 0.01, 0.01, 32, 0.001, 10, 999)=======
Mon 12 Jan 2026 19:31:22 INFO CPPRec(
  (MLP_v): Linear(in_features=64, out_features=64, bias=False)
  (MLP_t): Linear(in_features=64, out_features=64, bias=False)
  (image_embedding): Embedding(23033, 4096)
  (p_embedding): Embedding(23033, 100)
  (z_embedding): Embedding(23033, 384)
  (psh_gate_v): AttributeGate(
    (mlp): Sequential(
      (0): Linear(in_features=64, out_features=64, bias=True)
      (1): ReLU()
      (2): Linear(in_features=64, out_features=64, bias=True)
    )
  )
  (psh_gate_p): AttributeGate(
    (mlp): Sequential(
      (0): Linear(in_features=64, out_features=64, bias=True)
      (1): ReLU()
      (2): Linear(in_features=64, out_features=64, bias=True)
    )
  )
  (psh_gate_z): AttributeGate(
    (mlp): Sequential(
      (0): Linear(in_features=64, out_features=64, bias=True)
      (1): ReLU()
      (2): Linear(in_features=64, out_features=64, bias=True)
    )
  )
  (v_gcn): GCN(
    (fai): FactorizedAttributeInteraction(
      (u): Linear(in_features=4096, out_features=32, bias=False)
      (v): Linear(in_features=4096, out_features=32, bias=False)
      (proj): Linear(in_features=32, out_features=64, bias=False)
      (dropout): Dropout(p=0.01, inplace=False)
    )
    (conv_embed_1): Base_gcn(64, 64)
    (ID_embedding): Embedding(23033, 64)
  )
  (p_gcn): GCN(
    (fai): FactorizedAttributeInteraction(
      (u): Linear(in_features=100, out_features=32, bias=False)
      (v): Linear(in_features=100, out_features=32, bias=False)
      (proj): Linear(in_features=32, out_features=64, bias=False)
      (dropout): Dropout(p=0.01, inplace=False)
    )
    (conv_embed_1): Base_gcn(64, 64)
    (ID_embedding): Embedding(23033, 64)
  )
  (z_gcn): GCN(
    (fai): FactorizedAttributeInteraction(
      (u): Linear(in_features=384, out_features=32, bias=False)
      (v): Linear(in_features=384, out_features=32, bias=False)
      (proj): Linear(in_features=32, out_features=64, bias=False)
      (dropout): Dropout(p=0.01, inplace=False)
    )
    (conv_embed_1): Base_gcn(64, 64)
    (ID_embedding): Embedding(23033, 64)
  )
)
Trainable parameters: 117926366
Mon 12 Jan 2026 19:31:26 INFO epoch 0 training [time: 4.07s, train loss: 84.5056]
Mon 12 Jan 2026 19:31:30 INFO epoch 0 evaluating [time: 2.20s, valid_score: 0.018000]
Mon 12 Jan 2026 19:31:30 INFO valid result: 
recall@10: 0.0128    recall@20: 0.0180    ndcg@10: 0.0072    ndcg@20: 0.0085    
Mon 12 Jan 2026 19:31:30 INFO test result: 
recall@10: 0.0134    recall@20: 0.0189    ndcg@10: 0.0074    ndcg@20: 0.0088    
…
Parameters: ['knn_k', 'learning_rate', 'reg_weight', 'gamma', 'tau', 'degree_n', 'num_of_session_k', 'psh_weight', 'fai_dropout', 'fai_rank', 'user_view_weight', 'user_aug_user_k', 'seed']=(10, 0.0001, 0.01, 0.2, 0.7, 3, 10, 0.01, 0.01, 16, 0.001, 10, 999),
Valid: recall@10: 0.0707    recall@20: 0.1044    ndcg@10: 0.0395    ndcg@20: 0.0480    ,
Test: recall@10: 0.0727    recall@20: 0.1055    ndcg@10: 0.0399    ndcg@20: 0.0483



Mon 12 Jan 2026 19:46:52 INFO =========3/9: Parameters:['knn_k', 'learning_rate', 'reg_weight', 'gamma', 'tau', 'degree_n', 'num_of_session_k', 'psh_weight', 'fai_dropout', 'fai_rank', 'user_view_weight', 'user_aug_user_k', 'seed']=(10, 0.0001, 0.01, 0.2, 0.7, 3, 10, 0.01, 0.01, 8, 0.001, 10, 999)=======
Mon 12 Jan 2026 19:46:53 INFO CPPRec(
  (MLP_v): Linear(in_features=64, out_features=64, bias=False)
  (MLP_t): Linear(in_features=64, out_features=64, bias=False)
  (image_embedding): Embedding(23033, 4096)
  (p_embedding): Embedding(23033, 100)
  (z_embedding): Embedding(23033, 384)
  (psh_gate_v): AttributeGate(
    (mlp): Sequential(
      (0): Linear(in_features=64, out_features=64, bias=True)
      (1): ReLU()
      (2): Linear(in_features=64, out_features=64, bias=True)
    )
  )
  (psh_gate_p): AttributeGate(
    (mlp): Sequential(
      (0): Linear(in_features=64, out_features=64, bias=True)
      (1): ReLU()
      (2): Linear(in_features=64, out_features=64, bias=True)
    )
  )
  (psh_gate_z): AttributeGate(
    (mlp): Sequential(
      (0): Linear(in_features=64, out_features=64, bias=True)
      (1): ReLU()
      (2): Linear(in_features=64, out_features=64, bias=True)
    )
  )
  (v_gcn): GCN(
    (fai): FactorizedAttributeInteraction(
      (u): Linear(in_features=4096, out_features=8, bias=False)
      (v): Linear(in_features=4096, out_features=8, bias=False)
      (proj): Linear(in_features=8, out_features=64, bias=False)
      (dropout): Dropout(p=0.01, inplace=False)
    )
    (conv_embed_1): Base_gcn(64, 64)
    (ID_embedding): Embedding(23033, 64)
  )
  (p_gcn): GCN(
    (fai): FactorizedAttributeInteraction(
      (u): Linear(in_features=100, out_features=8, bias=False)
      (v): Linear(in_features=100, out_features=8, bias=False)
      (proj): Linear(in_features=8, out_features=64, bias=False)
      (dropout): Dropout(p=0.01, inplace=False)
    )
    (conv_embed_1): Base_gcn(64, 64)
    (ID_embedding): Embedding(23033, 64)
  )
  (z_gcn): GCN(
    (fai): FactorizedAttributeInteraction(
      (u): Linear(in_features=384, out_features=8, bias=False)
      (v): Linear(in_features=384, out_features=8, bias=False)
      (proj): Linear(in_features=8, out_features=64, bias=False)
      (dropout): Dropout(p=0.01, inplace=False)
    )
    (conv_embed_1): Base_gcn(64, 64)
    (ID_embedding): Embedding(23033, 64)
  )
)
Trainable parameters: 117701918
Mon 12 Jan 2026 19:46:57 INFO epoch 0 training [time: 4.10s, train loss: 84.6245]
Mon 12 Jan 2026 19:47:01 INFO epoch 0 evaluating [time: 2.19s, valid_score: 0.017600]
Mon 12 Jan 2026 19:47:01 INFO valid result: 
recall@10: 0.0125    recall@20: 0.0176    ndcg@10: 0.0072    ndcg@20: 0.0085    
Mon 12 Jan 2026 19:47:01 INFO test result: 
recall@10: 0.0126    recall@20: 0.0172    ndcg@10: 0.0072    ndcg@20: 0.0084    
…
