…
Average actions of users: 1.1150424273592183
The number of items: 5549
Average actions of items: 3.907370697422959
The number of inters: 21682
The sparsity of the dataset: 99.97990552482683%
Sun 11 Jan 2026 17:18:17 INFO 

=================================


Sun 11 Jan 2026 17:18:17 INFO =========1/36: Parameters:['knn_k', 'learning_rate', 'reg_weight', 'gamma', 'tau', 'degree_n', 'num_of_session_k', 'psh_weight', 'fai_dropout', 'fai_rank', 'user_view_weight', 'user_aug_user_k', 'seed']=(10, 0.0001, 0.001, 0.3, 0.7, 3, 10, 0.0001, 0.1, 16, 0.0001, 10, 999)=======
Sun 11 Jan 2026 17:18:21 INFO CPPRec
(
  (MLP_v): Linear(in_features=64, out_features=64, bias=False)
  (MLP_t): Linear(in_features=64, out_features=64, bias=False)
  (image_embedding): Embedding(7050, 4096)
  (p_embedding): Embedding(7050, 100)
  (z_embedding): Embedding(7050, 384)
  (psh_gate_v): AttributeGate(
    (mlp): Sequential(
      (0): Linear(in_features=64, out_features=64, bias=True)
      (1): ReLU()
      (2): Linear(in_features=64, out_features=64, bias=True)
    )
  )
  (psh_gate_p): AttributeGate(
    (mlp): Sequential(
      (0): Linear(in_features=64, out_features=64, bias=True)
      (1): ReLU()
      (2): Linear(in_features=64, out_features=64, bias=True)
    )
  )
  (psh_gate_z): AttributeGate(
    (mlp): Sequential(
      (0): Linear(in_features=64, out_features=64, bias=True)
      (1): ReLU()
      (2): Linear(in_features=64, out_features=64, bias=True)
    )
  )
  (v_gcn): GCN(
    (fai): FactorizedAttributeInteraction(
      (u): Linear(in_features=4096, out_features=16, bias=False)
      (v): Linear(in_features=4096, out_features=16, bias=False)
      (proj): Linear(in_features=16, out_features=64, bias=False)
      (dropout): Dropout(p=0.1, inplace=False)
    )
    (conv_embed_1): Base_gcn(64, 64)
    (ID_embedding): Embedding(7050, 64)
  )
  (p_gcn): GCN(
    (fai): FactorizedAttributeInteraction(
      (u): Linear(in_features=100, out_features=16, bias=False)
      (v): Linear(in_features=100, out_features=16, bias=False)
      (proj): Linear(in_features=16, out_features=64, bias=False)
      (dropout): Dropout(p=0.1, inplace=False)
    )
    (conv_embed_1): Base_gcn(64, 64)
    (ID_embedding): Embedding(7050, 64)
  )
  (z_gcn): GCN(
    (fai): FactorizedAttributeInteraction(
      (u): Linear(in_features=384, out_features=16, bias=False)
      (v): Linear(in_features=384, out_features=16, bias=False)
      (proj): Linear(in_features=16, out_features=64, bias=False)
      (dropout): Dropout(p=0.1, inplace=False)
    )
    (conv_embed_1): Base_gcn(64, 64)
    (ID_embedding): Embedding(7050, 64)
  )
)
Trainable parameters: 37617168
Sun 11 Jan 2026 17:18:24 INFO epoch 0 training [time: 2.63s, train loss: 53.9746]
Sun 11 Jan 2026 17:18:27 INFO epoch 0 evaluating [time: 1.11s, valid_score: 0.006200]
Sun 11 Jan 2026 17:18:27 INFO valid result: 
recall@10: 0.0038    recall@20: 0.0062    ndcg@10: 0.0017    ndcg@20: 0.0024    
Sun 11 Jan 2026 17:18:27 INFO test result: 
recall@10: 0.0034    recall@20: 0.0058    ndcg@10: 0.0016    ndcg@20: 0.0022    
…
Parameters: ['knn_k', 'learning_rate', 'reg_weight', 'gamma', 'tau', 'degree_n', 'num_of_session_k', 'psh_weight', 'fai_dropout', 'fai_rank', 'user_view_weight', 'user_aug_user_k', 'seed']=(10, 0.0001, 0.001, 0.3, 0.7, 3, 10, 0.0001, 0.1, 16, 0.0001, 10, 999),
Valid: recall@10: 0.0718    recall@20: 0.1088    ndcg@10: 0.0386    ndcg@20: 0.0480    ,
Test: recall@10: 0.0718    recall@20: 0.1091    ndcg@10: 0.0391    ndcg@20: 0.0486    



Sun 11 Jan 2026 17:44:22 INFO =========4/36: Parameters:['knn_k', 'learning_rate', 'reg_weight', 'gamma', 'tau', 'degree_n', 'num_of_session_k', 'psh_weight', 'fai_dropout', 'fai_rank', 'user_view_weight', 'user_aug_user_k', 'seed']=(10, 0.0001, 0.001, 0.3, 0.7, 3, 10, 0.0001, 0.1, 8, 0.0001, 10, 999)=======
Sun 11 Jan 2026 17:44:25 INFO CPPRec
(
  (MLP_v): Linear(in_features=64, out_features=64, bias=False)
  (MLP_t): Linear(in_features=64, out_features=64, bias=False)
  (image_embedding): Embedding(7050, 4096)
  (p_embedding): Embedding(7050, 100)
  (z_embedding): Embedding(7050, 384)
  (psh_gate_v): AttributeGate(
    (mlp): Sequential(
      (0): Linear(in_features=64, out_features=64, bias=True)
      (1): ReLU()
      (2): Linear(in_features=64, out_features=64, bias=True)
    )
  )
  (psh_gate_p): AttributeGate(
    (mlp): Sequential(
      (0): Linear(in_features=64, out_features=64, bias=True)
      (1): ReLU()
      (2): Linear(in_features=64, out_features=64, bias=True)
    )
  )
  (psh_gate_z): AttributeGate(
    (mlp): Sequential(
      (0): Linear(in_features=64, out_features=64, bias=True)
      (1): ReLU()
      (2): Linear(in_features=64, out_features=64, bias=True)
    )
  )
  (v_gcn): GCN(
    (fai): FactorizedAttributeInteraction(
      (u): Linear(in_features=4096, out_features=8, bias=False)
      (v): Linear(in_features=4096, out_features=8, bias=False)
      (proj): Linear(in_features=8, out_features=64, bias=False)
      (dropout): Dropout(p=0.1, inplace=False)
    )
    (conv_embed_1): Base_gcn(64, 64)
    (ID_embedding): Embedding(7050, 64)
  )
  (p_gcn): GCN(
    (fai): FactorizedAttributeInteraction(
      (u): Linear(in_features=100, out_features=8, bias=False)
      (v): Linear(in_features=100, out_features=8, bias=False)
      (proj): Linear(in_features=8, out_features=64, bias=False)
      (dropout): Dropout(p=0.1, inplace=False)
    )
    (conv_embed_1): Base_gcn(64, 64)
    (ID_embedding): Embedding(7050, 64)
  )
  (z_gcn): GCN(
    (fai): FactorizedAttributeInteraction(
      (u): Linear(in_features=384, out_features=8, bias=False)
      (v): Linear(in_features=384, out_features=8, bias=False)
      (proj): Linear(in_features=8, out_features=64, bias=False)
      (dropout): Dropout(p=0.1, inplace=False)
    )
    (conv_embed_1): Base_gcn(64, 64)
    (ID_embedding): Embedding(7050, 64)
  )
)
Trainable parameters: 37542352
Sun 11 Jan 2026 17:44:28 INFO epoch 0 training [time: 2.60s, train loss: 53.9994]
Sun 11 Jan 2026 17:44:30 INFO epoch 0 evaluating [time: 1.11s, valid_score: 0.005200]
Sun 11 Jan 2026 17:44:30 INFO valid result: 
recall@10: 0.0024    recall@20: 0.0052    ndcg@10: 0.0011    ndcg@20: 0.0018    
Sun 11 Jan 2026 17:44:30 INFO test result: 
recall@10: 0.0035    recall@20: 0.0059    ndcg@10: 0.0017    ndcg@20: 0.0023    
…
